…
    "pass_device": true,
    "model_args": {
        "num_nodes": 5298,
        "adj_path": "../data/adj.npz",
        "input_dim": 2666,
        "output_dim": 11,
        "hidden_dim": 32,
        "node_embedding_dim": 16,
        "cheb_k": 1,
        "num_layers": 1,
        "device": "cuda:0"
    }
}
==========================================================================================
Layer (type:depth-idx)                   Output Shape              Param #
==========================================================================================
GCN_CLF                                  [5298, 11]                169,536
├─Linear: 1-1                            [5298, 32]                85,344
├─ModuleList: 1-2                        --                        --
│    └─DF_GCN: 2-1                       [5298, 32]                5,152
├─Sequential: 1-3                        [5298, 11]                --
│    └─Linear: 2-2                       [5298, 16]                528
│    └─ReLU: 2-3                         [5298, 16]                --
│    └─Linear: 2-4                       [5298, 11]                187
==========================================================================================
Total params: 260,747
Trainable params: 260,747
Non-trainable params: 0
Total mult-adds (M): 455.94
==========================================================================================
Input size (MB): 56.50
Forward/backward pass size (MB): 3.86
Params size (MB): 0.36
Estimated Total Size (MB): 60.72
==========================================================================================
…
