…
    "clip_grad": 0,
    "max_epochs": 1000,
    "early_stop": 50,
    "model_args": {
        "input_classes_list": [
            6,
            3,
            43,
            44,
            64,
            2506
        ],
        "embedding_dim": 64,
        "output_dim": 11,
        "hidden_dim": 128
    }
}
==========================================================================================
Layer (type:depth-idx)                   Output Shape              Param #
==========================================================================================
MLP                                      [5298, 11]                --
├─ModuleList: 1-1                        --                        --
│    └─Embedding: 2-1                    [5298, 64]                384
│    └─Embedding: 2-2                    [5298, 64]                192
│    └─Embedding: 2-3                    [5298, 64]                2,752
│    └─Embedding: 2-4                    [5298, 64]                2,816
│    └─Embedding: 2-5                    [5298, 64]                4,096
│    └─Embedding: 2-6                    [5298, 64]                160,384
├─Sequential: 1-2                        [5298, 11]                --
│    └─Linear: 2-7                       [5298, 128]               49,280
│    └─ReLU: 2-8                         [5298, 128]               --
│    └─Linear: 2-9                       [5298, 11]                1,419
==========================================================================================
Total params: 221,323
Trainable params: 221,323
Non-trainable params: 0
Total mult-adds (G): 1.17
==========================================================================================
Input size (MB): 0.13
Forward/backward pass size (MB): 22.17
Params size (MB): 0.89
Estimated Total Size (MB): 23.18
==========================================================================================
…
