…
--------- MLP ---------
{
    "lr": 0.001,
    "weight_decay": 0,
    "milestones": [
        100
    ],
    "clip_grad": 0,
    "max_epochs": 200,
    "early_stop": 9999,
    "model_args": {
        "num_nodes": 5298,
        "input_dim": 2666,
        "output_dim": 11,
        "hidden_dim": 32
    }
}
==========================================================================================
Layer (type:depth-idx)                   Output Shape              Param #
==========================================================================================
MLP                                      [5298, 11]                --
├─Sequential: 1-1                        [5298, 11]                --
│    └─Linear: 2-1                       [5298, 32]                85,344
│    └─ReLU: 2-2                         [5298, 32]                --
│    └─Linear: 2-3                       [5298, 11]                363
==========================================================================================
Total params: 85,707
Trainable params: 85,707
Non-trainable params: 0
Total mult-adds (M): 454.08
==========================================================================================
Input size (MB): 56.50
Forward/backward pass size (MB): 1.82
Params size (MB): 0.34
Estimated Total Size (MB): 58.66
==========================================================================================
…
