…
    "clip_grad": 0,
    "max_epochs": 1000,
    "early_stop": 30,
    "pass_device": true,
    "model_args": {
        "num_nodes": 5298,
        "adj_path": "../data/adj.npz",
        "input_dim": 2666,
        "output_dim": 11,
        "hidden_dim": 32,
        "num_layers": 2,
        "device": "cuda:0"
    }
}
==========================================================================================
Layer (type:depth-idx)                   Output Shape              Param #
==========================================================================================
LapeGCN                                  [5298, 11]                --
├─Linear: 1-1                            [5298, 32]                85,344
├─ModuleList: 1-2                        --                        --
│    └─GCN: 2-1                          [5298, 32]                1,056
│    └─GCN: 2-2                          [5298, 32]                1,056
├─Sequential: 1-3                        [5298, 11]                --
│    └─Linear: 2-3                       [5298, 32]                2,080
│    └─ReLU: 2-4                         [5298, 32]                --
│    └─Linear: 2-5                       [5298, 11]                363
==========================================================================================
Total params: 89,899
Trainable params: 89,899
Non-trainable params: 0
Total mult-adds (M): 465.10
==========================================================================================
Input size (MB): 56.50
Forward/backward pass size (MB): 5.89
Params size (MB): 0.36
Estimated Total Size (MB): 62.75
==========================================================================================
…
