…
        "adj_path": "../data/adj.npz",
        "input_classes_list": [
            6,
            3,
            43,
            44,
            64,
            2506
        ],
        "embedding_dim": 8,
        "output_dim": 11,
        "hidden_dim": 32,
        "num_layers": 2,
        "device": "cuda:0"
    }
}
==========================================================================================
Layer (type:depth-idx)                   Output Shape              Param #
==========================================================================================
LapeGCN                                  [5298, 11]                --
├─ModuleList: 1-1                        --                        --
│    └─Embedding: 2-1                    [5298, 8]                 48
│    └─Embedding: 2-2                    [5298, 8]                 24
│    └─Embedding: 2-3                    [5298, 8]                 344
│    └─Embedding: 2-4                    [5298, 8]                 352
│    └─Embedding: 2-5                    [5298, 8]                 512
│    └─Embedding: 2-6                    [5298, 8]                 20,048
├─Linear: 1-2                            [5298, 32]                1,568
├─ModuleList: 1-3                        --                        --
│    └─GCN: 2-7                          [5298, 32]                1,056
│    └─GCN: 2-8                          [5298, 32]                1,056
├─Sequential: 1-4                        [5298, 11]                --
│    └─Linear: 2-9                       [5298, 32]                2,080
│    └─ReLU: 2-10                        [5298, 32]                --
│    └─Linear: 2-11                      [5298, 11]                363
==========================================================================================
Total params: 27,451
Trainable params: 27,451
Non-trainable params: 0
Total mult-adds (M): 134.25
==========================================================================================
Input size (MB): 0.13
Forward/backward pass size (MB): 7.93
Params size (MB): 0.11
Estimated Total Size (MB): 8.16
==========================================================================================
…
