…
            3,
            43,
            44,
            64,
            2506
        ],
        "embedding_dim": 8,
        "output_dim": 11,
        "hidden_dim": 32,
        "node_embedding_dim": 16,
        "cheb_k": 1,
        "num_layers": 2,
        "dropout": 0.1,
        "device": "cuda:0"
    }
}
==========================================================================================
Layer (type:depth-idx)                   Output Shape              Param #
==========================================================================================
ADFGCN                                   [5298, 11]                169,536
├─ModuleList: 1-1                        --                        --
│    └─Embedding: 2-1                    [5298, 8]                 48
│    └─Embedding: 2-2                    [5298, 8]                 24
│    └─Embedding: 2-3                    [5298, 8]                 344
│    └─Embedding: 2-4                    [5298, 8]                 352
│    └─Embedding: 2-5                    [5298, 8]                 512
│    └─Embedding: 2-6                    [5298, 8]                 20,048
├─Linear: 1-2                            [5298, 32]                1,568
├─ModuleList: 1-3                        --                        --
│    └─DFGCN: 2-7                        [5298, 32]                5,152
│    │    └─Dropout: 3-1                 [5298, 32]                --
│    │    └─Dropout: 3-2                 [5298, 32]                --
│    │    └─Dropout: 3-3                 [5298, 32]                --
│    │    └─Dropout: 3-4                 [5298, 32]                --
│    │    └─Dropout: 3-5                 [5298, 32]                --
│    └─DFGCN: 2-8                        [5298, 32]                5,152
│    │    └─Dropout: 3-6                 [5298, 32]                --
│    │    └─Dropout: 3-7                 [5298, 32]                --
│    │    └─Dropout: 3-8                 [5298, 32]                --
│    │    └─Dropout: 3-9                 [5298, 32]                --
│    │    └─Dropout: 3-10                [5298, 32]                --
├─Sequential: 1-4                        [5298, 11]                --
│    └─Linear: 2-9                       [5298, 32]                2,080
│    └─ReLU: 2-10                        [5298, 32]                --
│    └─Dropout: 2-11                     [5298, 32]                --
│    └─Linear: 2-12                      [5298, 11]                363
==========================================================================================
Total params: 205,179
Trainable params: 205,179
Non-trainable params: 0
Total mult-adds (M): 134.25
==========================================================================================
Input size (MB): 0.13
Forward/backward pass size (MB): 5.21
Params size (MB): 0.10
Estimated Total Size (MB): 5.44
==========================================================================================
…
