…
    "model_args": {
        "num_nodes": 5298,
        "adj_path": "../data/adj.npz",
        "input_dim": 2666,
        "output_dim": 11,
        "hidden_dim": 32,
        "node_embedding_dim": 16,
        "cheb_k": 1,
        "num_layers": 2,
        "dropout": 0,
        "device": "cuda:0"
    }
}
==========================================================================================
Layer (type:depth-idx)                   Output Shape              Param #
==========================================================================================
ADFGCN                                   [5298, 11]                169,536
├─Linear: 1-1                            [5298, 32]                85,344
├─ModuleList: 1-2                        --                        --
│    └─DFGCN: 2-1                        [5298, 32]                5,152
│    │    └─Dropout: 3-1                 [5298, 32]                --
│    │    └─Dropout: 3-2                 [5298, 32]                --
│    │    └─Dropout: 3-3                 [5298, 32]                --
│    │    └─Dropout: 3-4                 [5298, 32]                --
│    │    └─Dropout: 3-5                 [5298, 32]                --
│    └─DFGCN: 2-2                        [5298, 32]                5,152
│    │    └─Dropout: 3-6                 [5298, 32]                --
│    │    └─Dropout: 3-7                 [5298, 32]                --
│    │    └─Dropout: 3-8                 [5298, 32]                --
│    │    └─Dropout: 3-9                 [5298, 32]                --
│    │    └─Dropout: 3-10                [5298, 32]                --
├─Sequential: 1-3                        [5298, 11]                --
│    └─Linear: 2-3                       [5298, 32]                2,080
│    └─ReLU: 2-4                         [5298, 32]                --
│    └─Dropout: 2-5                      [5298, 32]                --
│    └─Linear: 2-6                       [5298, 11]                363
==========================================================================================
Total params: 267,627
Trainable params: 267,627
Non-trainable params: 0
Total mult-adds (M): 465.10
==========================================================================================
Input size (MB): 56.50
Forward/backward pass size (MB): 3.18
Params size (MB): 0.35
Estimated Total Size (MB): 60.03
==========================================================================================
…
